app/src/main/assets/wordvec.tflite (tflite, 769756 bytes, 5 tensors)

sequential_4/dense_8/BiasAdd/ReadVariableOp/resource f4 [16]
00000000: 62e1 e4bb f98b f13c fb4c 8f3d cb23 053e
00000010: c8ee 48bd 8846 ca3d 1c63 983d d358 c23d
00000020: a731 33bc f1b8 be3d afc8 913d abf2 1dbd
00000030: ee3a 233c aa9c 393b 859d e53d 1011 5c3c
-0.0069848755 0.02948569 0.06997105 0.13001935 -0.049055845 0.09876734 0.074407786 0.09489598
-0.010937131 0.093126185 0.071183555 -0.038561504 0.00996278 0.0028322139 0.11211685 0.013431802

sequential_4/dense_9/BiasAdd/ReadVariableOp/resource f4 [2]
00000000: 31f6 313d 29f6 31bd
0.043447677 -0.043447647

sequential_4/embedding_4/embedding_lookup/160435 f4 [10003, 16]
00000000: 4fa3 373d a625 9d3d 233e 10bd fb5a 523c
00000010: 2df4 b4bc 6690 58bd 5c23 62bc 53f9 1dbd
00000020: dc92 0abd e43d 1abb 9785 f1bb ec5c b53a
00000030: a80d 823c 67d6 3abd 0050 96bc 3bee 4dbd
00000040: f717 1d3d bcd5 8cba b66c 39bd 4fe1 443d
00000050: 8c75 d1bd 4a94 69bc 93d5 9a3d 6d87 f4bc
00000060: a5d7 353d b4d9 d5bc d21f 9f3a 604d 95bc
00000070: 9e3c b3bd 9586 35bb 3d4c 69bd 28b3 d83c
00000080: cd5e 973d 8ece 73bd f94a b7bc c562 5abc
00000090: 5124 ddbd 0af2 983d 1aec 6d3d 95cd bbbc
000000a0: a2fb ce3c 7e9a 82bd f477 fbbc ebd5 0abd
000000b0: b67e 17bd f5e3 d13b 2127 51bd 2314 4d3d
000000c0: 252d b5bc 6d04 863d f7ab d93c 666a e7bb
000000d0: c18b b3bd a323 69bd 3963 96bc 2f45 8fbd
000000e0: a7be 273c 43ec 143d d29a 8dbd 0b7c ccbd
000000f0: ed86 20bd 6460 c3bd 9b8e 5bbd 1131 b83c
00000100: 695f 963c abb2 093d c8a5 c0bc 5fd0 67bd
00000110: c874 783c 330c 62bd 8d98 083d 854d 65bd
00000120: 6fe8 3c3c 8e91 a93d ec8e 98bd 8a93 d6bd
00000130: 6c2d 9d3c 7fb5 6bbd 0f55 3f3d 287b 33bc
00000140: ee07 433d 6594 623d 100f 913c daf6 9fbc
00000150: dba9 37bd bde3 b23c 7897 25bc c0c8 2b3a
00000160: 0727 803c 1cdc 99bc c26e e9bc 7836 9ebd
00000170: 2000 bebc ea79 cebc e705 9bbc eda0 2ebd
00000180: 61da 9e3d 0415 8d3b b4bd 74bd e8c4 80bc
00000190: b445 63bd 9db2 773a e92a d33d ab91 123d
000001a0: 8373 86bd 1254 d63a 0c74 593c 2140 fcbc
000001b0: f251 c3bc a62b 3e3c 74b9 48bd dcc9 5a3d
000001c0: cf62 273d 7c5c c8ba 9b4c a6bc 2cdf f8bb
000001d0: 857e 73bd 887b 1e3d e2fd 5b3d 1267 86bc
000001e0: 2cd9 8e3c 9261 873b 21a6 97bb 4491 ba3c
000001f0: 747b 45bc 25c5 b5bc a1e0 83bd 80b5 d9b8
00000200: 403e 893c 0557 393d f548 153c c463 3abd
00000210: 79d0 533a 3bfe 72bd e9fe 093c ad80 1abc
00000220: 7160 8e3d e124 a83c f768 21bd bf72 8fbd
00000230: f079 d83c 9edf f6bc ca3e 0dbd c1ba 903b
00000240: aa59 bc3d 090d dd3b 96f0 df3a fb3a 57bc
00000250: 22c1 7dbd 225e e93c 390c 3a3d cb0c 43ba
00000260: 8a59 70bd 2740 073d 29b2 81ba 7f51 d8bc
00000270: f57f 36bd e35a 14bd ea3f aabd 0085 5e3d
00000280: 6091 913d dffa c63c 0daa abbd 6f2a 323d
00000290: 85ef 86bc e30a 8d3d ede8 e63c 813e 08bd
000002a0: e94f 0cbc 95f8 a53c 30ad 373c 1b41 52bd
000002b0: 643d 92b9 4f7d 05bc 1c14 4ebc cdb0 303d
000002c0: 8836 a8bd d15f d03d 3141 c03b 0219 b2bd
000002d0: 2b04 0d3d 2362 07be 95cc c7bd b360 cfbd
000002e0: d694 e33d 0bde 9b3d 557a debd 60d9 e4bd
000002f0: dd41 4c3d d4dd 10be bee8 373d b50a 92bd
00000300: 5eb2 023d 5222 c33d faf3 813d d463 44bc
00000310: 8cda 6b3c 6cae aabc 917f 0abc db7a c63a
00000320: a226 d0bb 01fc 8a3d d45e ccbd bf60 e0bd
00000330: 2ee3 9a3c c339 dbbd fd6c e13b 66e8 1bbd
00000340: 6cb6 d33c eea4 903d 7e9c ee3c ebef fc3c
00000350: 9b10 a8bd d793 28bd 339e 5e3d 1dbb b63c
00000360: a7c2 c1bc af9f 1c3d 303d c63b a570 48bd
00000370: e6c7 58bd ff61 c4bd 5599 b1bd 0ad8 223c
00000380: f3d3 f63c d514 343d 765c 70bc 0f01 3f3d
00000390: cac6 d2bc 5416 993c 0d12 ff3c 124f 05bd
000003a0: 1859 c03c d87f be3a daec aebc 45c5 4fbc
000003b0: 4791 0dbc 6e71 b2bb 9f61 60bd 83e7 503c
000003c0: 1415 353d 14df d8bc 80d1 57bc ba05 273d
000003d0: d433 c7bd 2a19 ac3d feff 1c3d 2421 cc3c
000003e0: 45da b2bd 3a73 8cbd 2b44 303d 66c8 243d
000003f0: 8051 92bd a3e7 463d a8ca 4dbd f906 8a3d
0.044833478 0.076731965 -0.03521551 0.012839074 -0.022089088 -0.052872084 -0.013802376 -0.038567852
-0.033831462 -0.0023535425 -0.0073706615 0.0013836897 0.015875652 -0.045614626 -0.018348694 -0.050276022
0.038352933 -0.001074485 -0.04526969 0.048066434 -0.102274984 -0.014256546 0.07560267 -0.029849732
0.044395108 -0.026104786 0.001214022 -0.018225372 -0.08751796 -0.0027698625 -0.056957472 0.026452616
0.07391129 -0.059523158 -0.022374617 -0.013329213 -0.107979424 0.0746804 0.058086492 -0.022925178
0.025266472 -0.06377123 -0.030696847 -0.033895414 -0.036986075 0.0064053484 -0.051062707 0.050068032
-0.022116253 0.06543813 0.026571257 -0.007062244 -0.0876689 -0.05691875 -0.01835786 -0.069956176
0.010238326 0.03635813 -0.06914295 -0.09984597 -0.039191175 -0.095398694 -0.053602796 0.022484334
0.018356042 0.033617657 -0.02351655 -0.056595203 0.015164562 -0.055187415 0.03334861 -0.05598213
0.011530026 0.082797155 -0.07449135 -0.104773596 0.019186698 -0.057546135 0.046711978 -0.010954656
0.047614984 0.0553173 0.017707378 -0.019526888 -0.04483972 0.02183711 -0.010106914 0.00065530464
0.01564361 -0.018781714 -0.028495196 -0.07725233 -0.023193419 -0.025204618 -0.018923713 -0.04263394
0.07756496 0.004305484 -0.059751227 -0.015718892 -0.055486396 0.00094489177 0.10310919 0.03578345
-0.06565001 0.0016351959 0.013272297 -0.030792298 -0.023842786 0.011607086 -0.049004987 0.053415164
0.040865716 -0.0015286352 -0.0203002 -0.0075949635 -0.05944683 0.038692027 0.05370892 -0.01640657
0.01743754 0.0041315043 -0.0046279584 0.022774346 -0.012053359 -0.022188732 -0.06439329 -0.00010381173
0.016753316 0.045249004 0.009111633 -0.0455053 0.0008080076 -0.059324484 0.008422592 -0.009430093
0.069519885 0.020525398 -0.039406743 -0.07004308 0.026425332 -0.030135926 -0.03448371 0.004416794
0.091967896 0.0067459387 0.001708525 -0.013136621 -0.061951764 0.028487269 0.045421813 -0.0007440566
-0.05867914 0.033020165 -0.0009895015 -0.026406048 -0.044555623 -0.03621949 -0.08312972 0.054326057
0.07107806 0.024289547 -0.08382044 0.0434975 -0.016471634 0.06886842 0.02818724 -0.033262733
-0.008563974 0.020260135 0.011210725 -0.05133162 -0.0002789303 -0.008147552 -0.012578037 0.04313736
-0.08213526 0.101745255 0.0058671464 -0.08696176 0.034427803 -0.1322103 -0.09755818 -0.10125866
0.111123726 0.07610711 -0.10863177 -0.111742735 0.0498675 -0.1414712 0.044899695 -0.071309485
0.031908385 0.095280305 0.06345363 -0.0119866915 0.014395367 -0.020835124 -0.008453266 0.0015142815
-0.0063522616 0.06786347 -0.099790245 -0.10955953 0.018907156 -0.107043765 0.0068794475 -0.03806343
0.025843821 0.07062708 0.029127356 0.03087612 -0.08206292 -0.041156616 0.05435009 0.02230602
-0.023652388 0.038238224 0.0060497746 -0.04893555 -0.052925013 -0.09589004 -0.08671824 0.009939203
0.030130362 0.04396518 -0.014670482 0.04663187 -0.025729556 0.018687405 0.031136537 -0.03254611
0.023479983 0.001453395 -0.021353174 -0.01268131 -0.008640594 -0.005445651 -0.0547806 0.012750509
0.044209555 -0.02647356 -0.013172507 0.040776946 -0.09726682 0.08403237 0.03833007 0.024918146
-0.08733038 -0.06857915 0.04303376 0.040230177 -0.07144451 0.04856075 -0.050242096 0.06739611

sequential_4/dense_8/MatMul f4 [16, 16]
00000000: d731 cabe 16c5 4c3e b976 513e e616 f7bd
00000010: d550 a53e bbc5 db3e 9051 8d3e 99fb 9cbd
00000020: 7be0 4f3d 9f1d a7be 2fca b5bd 046a 6e3e
00000030: e15e 5c3e 4392 b53e 8811 c23e aee1 a83c
00000040: 880a 63be 0ce8 493f 381e 4d3f 85e0 aabf
00000050: 5aff 843e e7ac 81bf 3696 8cbf 759b f2be
00000060: 4514 8e3f a5e0 863f 2548 73bf b677 76bf
00000070: 2760 8c3f 531e 54be 2317 603f 4d8f 91bf
00000080: 2c4d 813f 1949 3abe 8712 30bf 4365 b83f
00000090: 4b91 84bf 3ef1 b13e e59a 663f 5d0f 2d3f
000000a0: b591 7bbf 31b3 a5bf 6b77 d13e 06fd fe3e
000000b0: 3b60 87bf 931a 9b3e 9a55 46bf 028f 853f
000000c0: ed2e 873f 11ca 24bf 571d 95bf d6ad a93f
000000d0: 1674 22bf e9a8 d63e 9350 a83f 3c41 543f
000000e0: c9e5 7bbf 48f3 61bf f00f 123f ca80 7b3f
000000f0: 7172 8abf 0d0a a53e 6686 79bf 0809 5e3f
00000100: 0262 863e a76b 1c3e 89e7 a13d b30a ad3e
00000110: 7d88 5d3d 7fe6 eabb 42f2 c2be 244a 9d3e
00000120: 4813 bebe f2fa b43e 637f b9be 97cf 213d
00000130: 63d0 73be 74a7 f3bc 6b04 e43d 520c c73e
00000140: 2140 633f 7c71 93be 0d8e 16bf cd13 953f
00000150: 4744 85bf 4e82 213f b4c4 843f ae50 253f
00000160: cff1 87bf 9602 acbf 43da 8d3f 2876 773f
00000170: 4103 a7bf bf19 333e 379e 81bf 15ce 0d3f
00000180: 8e30 60bf 3aed a53e d57f 593f 4916 c8bf
00000190: 2bfa 203f 9687 cabe 0300 b4bf 47ce 6fbf
000001a0: c7d7 7e3f ecb5 c23f b9d4 60bf e1ca 30bf
000001b0: b5f1 a53f 04ba abbe 6ef2 3e3f e62d 9abf
000001c0: 550d 753f 26e0 fbbe 3b8c 83bf a36e 9b3f
000001d0: bf9b 08bf d49c 233f dc89 bf3f 5b55 eb3e
000001e0: 1368 7bbf 7c84 86bf 3662 6f3f 08cd 5b3e
000001f0: 52d7 90bf 2798 1c3f 83b6 80bf 4296 0c3f
00000200: f7b0 debe 9d5f 3a3e 7704 893e 9999 cabe
00000210: 11f8 8c3e d82d 143e 61de 893e 7fb7 9d3e
00000220: e7a3 d7be 9354 53bd 5c1a 31be 0967 debc
00000230: 007a 803d d136 9abd 81d4 88be aa92 443e
00000240: a53c 67bf a3f6 e93e 4f21 4d3f d58e c8bf
00000250: f1af 773f fdfd 87bf 613f a3bf 7e34 53bf
00000260: 795a 863f 0e83 8e3f c010 87bf 95d5 36bf
00000270: 3aab 863f 1bf3 b9be 54db 8b3f 5a8f 11bf
00000280: 21f7 d33e 1fb9 be3c ec6e 4cbf ac61 cc3f
00000290: ff20 86bf a3d9 4f3f fffd c43f 38bc 5c3f
000002a0: 038d 9abf c34e aabf 8c42 7c3f b279 7e3e
000002b0: 9731 adbf 3b28 9bbc e2c1 7dbf 7d0d c93e
000002c0: e1c5 f5bd aa3a 3ebe 5597 19be b66a be3e
000002d0: dd14 e63e 5ad6 a03e 462c 3cbe d3ff bcbd
000002e0: bbf5 b9be 6af1 8e3e 987f c73e 52bb f6bd
000002f0: d534 a0be 2fb5 f13d 39da 2b3d 73d8 0d3e
00000300: 28b9 41be a2c3 4e3f e58f c63e 4830 67bf
00000310: 3621 e83e 2bd8 a2be bcb0 a8bf 0aca 3dbf
00000320: 80ea 8c3f e877 c03f 1dbd 46bf acc0 7bbf
00000330: db9f bf3f fb61 f3be b9a2 2c3f 8b6d 77bf
00000340: 423e 57bf 393d 3d3f cb8b 5c3f 956a a0bf
00000350: 97e0 1d3f 1aba 62bf d193 d8bf 6fa6 49bf
00000360: 454a 773f b4cb 503f 13d1 64bf d546 6abf
00000370: 44a0 8c3f fe74 1bbf 2db7 463f dc41 8dbf
00000380: b51f 103f 631f a6be d904 96bf 1d2c ba3f
00000390: 1aa5 f8be 1259 4c3f 0e1e 843f 34a2 4e3f
000003a0: eddd 3fbf e3a8 5bbf 39c8 043f 4081 583f
000003b0: 82ed 8fbf 9015 2cbb 53b7 59bf 158d 663f
000003c0: 5352 b3be 8961 473f 6f65 823f e547 a7bf
000003d0: 4e21 df3e d0fb 30bf 73ee 82bf 12ab 8bbf
000003e0: 4fc6 5c3f 5a5f bc3f f26e 3cbf fc92 02bf
000003f0: 2f78 943f 2741 febe e7fb 673f 86ad 00bf
-0.3949115 0.19997057 0.20455445 -0.120649144 0.32288232 0.42924294 0.2760129 -0.07665176
0.05075119 -0.32639787 -0.08876454 0.23282629 0.21520568 0.3546315 0.37904 0.020615425
-0.22171986 0.788697 0.80124235 -1.3349768 0.25976068 -1.0130891 -1.0983341 -0.4738423
1.1099936 1.0537306 -0.9503196 -0.96276414 1.0966843 -0.20714693 0.87535304 -1.1371857
1.0101676 -0.18191947 -0.6877827 1.4405903 -1.035684 0.34754366 0.900801 0.6760157
-0.98269206 -1.294531 0.4091142 0.49802417 -1.0576242 0.30293712 -0.7747437 1.0434268
1.0561196 -0.6437083 -1.1649579 1.3256176 -0.63458383 0.41925743 1.3149589 0.8291204
-0.983975 -0.8826184 0.5705557 0.9824339 -1.0816175 0.3223423 -0.974707 0.8673253
0.2624665 0.15275441 0.0790549 0.33797225 0.054085243 -0.0071685906 -0.38075453 0.30720627
-0.37124085 0.35347706 -0.3623 0.039504614 -0.23809962 -0.029742934 0.11133655 0.38876587
0.8876973 -0.2879752 -0.588105 1.1646668 -1.0411462 0.63089454 1.0372529 0.6457623
-1.0620669 -1.3438289 1.1082233 0.9666467 -1.3047868 0.1749029 -1.0126408 0.5539258
-0.8757409 0.32407552 0.8496068 -1.5631801 0.62881726 -0.3955657 -1.4062504 -0.9367413
0.99548 1.5211768 -0.8782459 -0.6905957 1.2964388 -0.33540356 0.7458867 -1.2045257
0.9572347 -0.4919445 -1.027717 1.2143139 -0.5336265 0.63911176 1.4963946 0.4596356
-0.9820568 -1.0509181 0.93509233 0.21464932 -1.131571 0.61169666 -1.0055698 0.54916775
-0.43494388 0.18200536 0.2676122 -0.3957031 0.2753301 0.14470613 0.26927474 0.3080406
-0.42117235 -0.051594328 -0.17295212 -0.02714874 0.0627327 -0.07529987 -0.26724628 0.19196573
-0.9032691 0.4569598 0.8012895 -1.5668589 0.9675284 -1.0624386 -1.2753717 -0.8250197
1.049636 1.1133745 -1.0551987 -0.7141965 1.0521004 -0.36318287 1.0926309 -0.5685936
0.41399482 0.023281632 -0.79856753 1.5967307 -1.047882 0.8119146 1.5390013 0.862247
-1.2074283 -1.3305286 0.9853904 0.2485111 -1.3530759 -0.018940082 -0.99123967 0.39268103
-0.12000633 -0.18577066 -0.14999135 0.3719079 0.44937792 0.31413537 -0.18376264 -0.09228482
-0.3632029 0.2791856 0.38964534 -0.12047447 -0.31290308 0.11802136 0.04195616 0.138521
-0.18918288 0.8076726 0.38781658 -0.90308046 0.45337838 -0.31805548 -1.3178935 -0.7413641
1.1009064 1.5036592 -0.77632314 -0.9834087 1.4970659 -0.4753569 0.67435795 -0.96651524
-0.8407937 0.73921543 0.8615081 -1.2532526 0.6167082 -0.8856522 -1.692011 -0.7876958
0.965977 0.81560826 -0.8938152 -0.9151433 1.0986409 -0.6072539 0.77623254 -1.1035724
0.5629838 -0.3244582 -1.1720229 1.4544712 -0.48563462 0.7982341 1.0321672 0.8071625
-0.74948007 -0.85804576 0.51868016 0.8457222 -1.1244357 -0.002625797 -0.85045356 0.90059024
-0.35023746 0.778832 1.0187205 -1.3068815 0.43580097 -0.69134235 -1.0229019 -1.0911582
0.86240095 1.4716599 -0.7360679 -0.5100553 1.1599177 -0.49659082 0.9061875 -0.50264776

sequential_4/dense_9/MatMul f4 [2, 16]
00000000: b81b bb3d fec8 9dbf e68c aa3f 5be2 6b3f
00000010: bb28 e4be 006a 593f 07dd a2bf 5093 a43f
00000020: 1154 df3e f294 76bf 54d7 3e3f 1af1 82be
00000030: 787d b9bf 6eff bbbf fe91 663f b174 aebf
00000040: d067 c6bd 2079 453f 898b aebf 3637 8ebf
00000050: 61f3 9bbe 5d24 87bf 0cb6 4b3f 1cf8 a7bf
00000060: 0556 b43e 51fe 853f 150f 98bf 2ba2 27bd
00000070: d187 873f dd3b be3f 840e 91bf cdee 833f
0.09136146 -1.2326963 1.3324249 0.92142266 -0.44562325 0.8492737 -1.2723702 1.2857456
0.43618825 -0.9632102 0.74547315 -0.2557457 -1.4491415 -1.4687326 0.90066516 -1.3629361
-0.096877694 0.7713795 -1.3636333 -1.1110599 -0.3045912 -1.0557972 0.79574656 -1.3122592
0.35221878 1.0468236 -1.1879603 -0.04092614 1.0588323 1.4862019 -1.1332555 1.0307251
